model11.pt (torch, 446525 bytes, 52 tensors)

conv1.weight f4 [16, 3, 3, 3]
0	0xbef0e987	-0.47053167
1	0x3ff3fa6b	1.9060796
2	0x40349d75	2.8221104
3	0xbf97e418	-1.1866484
4	0x3fe279a1	1.7693368
5	0x403cdc68	2.9509525
6	0xbfbb0882	-1.4611971
7	0x3ef73545	0.4828283
8	0x3fb0d3c3	1.3814625
9	0xbf8585cf	-1.043146
10	0x3fb33adc	1.4002337
11	0x40340762	2.8129506
12	0xc0051a4b	-2.0797298
13	0x3fbd7c25	1.4803511
14	0x40345c71	2.8181422
15	0xc0047dd1	-2.0701792
16	0x3e8bd3d4	0.2731005
17	0x3fc36b66	1.526715
18	0xc0348497	-2.8205926
19	0xbf229737	-0.63511986
20	0xbac90396	-0.0015336152
21	0xc066f812	-3.608891
22	0xbf5faccb	-0.87373036
23	0xbc561d53	-0.013068515
24	0xc059a495	-3.4006703
25	0xbfdc8b46	-1.7230003
26	0xbf9f257c	-1.2433314
27	0xbf4d3362	-0.8015653
28	0x3f8d9509	1.1061107
29	0x3fa7a711	1.309786
30	0xbfe8a24e	-1.8174531
31	0x3d8986ee	0.06715189
32	0x3ec60c13	0.38681087
33	0xc04c3ab9	-3.1910841
34	0xc0011731	-2.0170405
35	0xbfb444e7	-1.4083527
36	0x3f7032a5	0.9382728
37	0x40541b89	3.3141806
38	0x406381b5	3.5547917
39	0xbc9778e0	-0.018490255
40	0x3ff920ad	1.9463097
41	0x4009510c	2.1455717
42	0xbff9cdf4	-1.9515977
43	0xbf4f7462	-0.8103696
44	0xbeedd0e7	-0.46448442
45	0xbd5c478a	-0.053779162
46	0x3fb64554	1.4239907
47	0x3f8dd9ed	1.1082131
48	0xbf03936f	-0.5139684
49	0x3ec4aa94	0.3841139
50	0x3dea9b3b	0.11455389
51	0xc004fe0c	-2.0780058
52	0xbfc02fe7	-1.5014619
53	0xbfc5c29e	-1.5450017
54	0xbf5f68ec	-0.87269473
55	0x3fbaca17	1.4592923
56	0x4048f06f	3.139675
57	0xbfd4dc6c	-1.6629767
58	0x3fa116ba	1.2585061
59	0x4059059a	3.390967
60	0xc04480c6	-3.0703597
61	0xbf1c5b40	-0.61076736
62	0x3f2a933b	0.66630906
63	0xbf4a2a45	-0.7897075
64	0x3fcc5a60	1.596508
65	0x404afded	3.1717484
66	0xbfaa3813	-1.3298362
67	0x3fc7ada3	1.5599865
68	0x4043d23a	3.0597062
69	0xc03aed12	-2.9207196
70	0xbf1ede27	-0.6205773
71	0x3ee8ab29	0.45443085
72	0x3e4951c5	0.19660099
73	0x3fb23a3f	1.3924025
74	0x40048bbe	2.0710292
75	0xbeb4682a	-0.3523572
76	0x3fdda77e	1.731674
77	0x40162ba6	2.346414
78	0xbfbc6d65	-1.4720885
79	0x3d28d89b	0.041222196
80	0x3eeb722e	0.4598555
81	0xbf855284	-1.0415807
82	0xc01235f8	-2.284544
83	0xc03b9ca3	-2.9314353
84	0x3f0857b3	0.5325882
85	0xbf48bd17	-0.7841353
86	0xc0054fba	-2.0829911
87	0x3faabf59	1.3339645
88	0x3f3d472a	0.7393671
89	0xbf466b90	-0.7750788
90	0x3f96f365	1.1793028
91	0xbed0e289	-0.40797833
92	0xbfcd277c	-1.6027675
93	0x402813bf	2.6262052
94	0x3faf0ea6	1.3676345
95	0xbf1c6732	-0.61094964
96	0x4068ed0f	3.639469
97	0x4040fbb7	3.0153635
98	0x3fb76cff	1.4330138
99	0xbf1d2491	-0.6138392
100	0xc00046b2	-2.004315
101	0xc02c898b	-2.695895
102	0x3f2e3c54	0.68060803
103	0xbf4e3a70	-0.8055792
104	0xc00aca25	-2.168588
105	0x3f95f9f0	1.17169
106	0x3f28158f	0.65657896
107	0xbf026a75	-0.5094369
108	0xc15ee4a1	-13.930818
109	0xc0e11644	-7.033968
110	0x40225e13	2.5369918
111	0xc14dcfb9	-12.863214
112	0xc0ac2a2d	-5.3801484
113	0x40975909	4.7296185
114	0xc09e99ff	-4.9562984
115	0xbdf1aaf3	-0.11800184
116	0x40b70161	5.7189183
117	0xc1026065	-8.148534
118	0xbfed3df3	-1.853453
119	0x40fe347d	7.9439073
120	0xc0cb4b87	-6.3529696
121	0x3f448a41	0.7677346
122	0x412c06f3	10.751697
123	0x402d9b36	2.7125983
124	0x40d9752e	6.795554
125	0x414829ff	12.510253
126	0xc1467749	-12.404122
127	0xc0b481e2	-5.640855
128	0x406ca77d	3.6977227
129	0xc12f3ed1	-10.952836
130	0xc06fa579	-3.7444746
131	0x40c09181	6.0177617
132	0xbff7d632	-1.9362242
133	0x4007e046	2.1230636
134	0x40f3561d	7.604262
135	0xbf85a6ca	-1.0441525
136	0x3f8ee8e1	1.1164819
137	0x409e65c7	4.949924
138	0xc09d95a2	-4.9245157
139	0xbff483ad	-1.9102684
140	0x40531152	3.2979321
141	0xc098e08e	-4.7774115
142	0xc03fdac3	-2.9977272
143	0x3f86aed9	1.0522109
144	0xbf216fce	-0.63061225
145	0x4007cb58	2.121786
146	0x40c56f4e	6.169837
147	0xc0848802	-4.1416025
148	0xbfaca16a	-1.348676
149	0x407881d7	3.8829248
150	0xc06a9d13	-3.665837
151	0xc0192607	-2.392946
152	0x3ff8382a	1.939214
153	0x3f03ecf6	0.5153345
154	0x401abc1c	2.4177313
155	0x40bfd4ba	5.9947176
156	0xc0513e1a	-3.2694154
157	0xbf4b738d	-0.7947319
158	0x4076f667	3.8587892
159	0xc06b3b11	-3.6754801
160	0xbffb3f91	-1.9628774
161	0x3fb00996	1.3752925
162	0xc06e66fd	-3.725036
163	0x40871526	4.2213316
164	0x40bab4bb	5.834562
165	0xc0e4748f	-7.1392283
166	0xbf7345ce	-0.9502839
167	0x3f48a425	0.78375465
168	0xc13ef6c2	-11.935244
169	0xc10fd2db	-8.988978
170	0xc102011e	-8.125273
171	0x4085514f	4.1661754
172	0x414d7be0	12.842743
173	0x41746a52	15.275957
174	0xbef004e8	-0.46878743
175	0x40cba58d	6.363959
176	0x4104232e	8.258589
177	0xc0c15e0a	-6.0427294
178	0xc04dcb9c	-3.2155523
179	0xc024306b	-2.5654552
180	0x3f1c5dc3	0.6108057
181	0x4105384c	8.326244
182	0x41197090	9.589981
183	0xc05611f4	-3.3448458
184	0x40066267	2.099756
185	0x405f3d3f	3.4881132
186	0xc102c8ec	-8.174053
187	0xc0db6959	-6.85661
188	0xc0cfd757	-6.4950366
189	0xbd348483	-0.044071686
190	0x3fb7aebc	1.43502
191	0x406a53c5	3.661363
192	0xc044184f	-3.0639837
193	0xbfa5a24b	-1.2940153
194	0x3fdfaa18	1.7473783
195	0xc06fa74c	-3.744586
196	0xbff11f30	-1.8837643
197	0x3eb78931	0.35846856
198	0x3e37a78b	0.17935006
199	0x3fd623ff	1.6729735
200	0x4086cdec	4.212637
201	0xc0385302	-2.8800664
202	0xbf8b99ce	-1.0906312
203	0x3ffdb662	1.9821284
204	0xc06ac86e	-3.6684833
205	0xbfe1c923	-1.7639507
206	0x3e6501d6	0.22363982
207	0x3f108106	0.56446874
208	0x3fc780f4	1.5586228
209	0x4048b7b9	3.1362135
210	0xc00d2054	-2.2050982
211	0xbf4bcbae	-0.79607666
212	0x3fbeb4b3	1.4898895
213	0xc03f4538	-2.9885998
214	0xbfcc7eb0	-1.5976162
215	0x3e5b33e4	0.21406513
216	0x40288bc1	2.63353
217	0x3c9041a1	0.01760942
218	0xbfc1b92c	-1.5134635
219	0x402998e9	2.649958
220	0xbcb231c2	-0.021752242
221	0xbfefcde8	-1.8734713
222	0x4033268f	2.7992284
223	0x3f17f77f	0.59362024
224	0xbf27f811	-0.65612894
225	0xbeb8526c	-0.36000383
226	0xc06e1c03	-3.7204597
227	0xc0aed893	-5.4639373
228	0xbf0d24e0	-0.5513439
229	0xc06e8d2b	-3.7273662
230	0xc0b925b9	-5.785855
231	0xbe980cc5	-0.29697242
232	0xc041530e	-3.0206943
233	0xc095dd5a	-4.6832705
234	0x401d7744	2.4604044
235	0xbeb03663	-0.34416494
236	0xbfc56e20	-1.5424232
237	0x401a33b7	2.4094064
238	0xbe1b6662	-0.15175775
239	0xbfef37da	-1.868892
240	0x40073fb3	2.113263
241	0x3ebd09ad	0.36921445
242	0xbf87c878	-1.0608053
243	0xbff31281	-1.8990022
244	0xbc02a2c0	-0.007973373
245	0x3faafb5e	1.3357961
246	0xbffce805	-1.9758307
247	0x3f834806	1.0256355
248	0x401576a3	2.335366
249	0xbf556730	-0.83360577
250	0x3f97742c	1.1832328
251	0x40084a60	2.1295395
252	0xc056640e	-3.3498569
253	0xbfa0043f	-1.2501296
254	0x3ecc4759	0.39898184
255	0xc0390013	-2.8906295

conv1.bias f4 [16]
0	0x403b3314	2.9249926
1	0x3f436f8c	0.7634208
2	0xbfc54743	-1.5412372
3	0x3f157609	0.5838323
4	0xbfb83362	-1.4390681
5	0xbcc27a84	-0.02374006
6	0xbe8501a2	-0.25977808
7	0xbea2eb3b	-0.31820092
8	0xbf7e3e9a	-0.9931427
9	0x3d9ab13b	0.07553335
10	0xbfe2ac98	-1.7708921
11	0x3f37bbef	0.7177114
12	0x3fb413fb	1.4068598
13	0xbe7aad10	-0.2448008
14	0x3ff449f1	1.9085065
15	0xbffc72c7	-1.9722527

conv1_batchnorm.weight f4 [16]
0	0x3f187326	0.595507
1	0x3f269914	0.6507733
2	0x3edee70d	0.43535653
3	0x3f1c768e	0.611184
4	0x3e0a3043	0.13494973
5	0x3ed5836b	0.41701826
6	0x3e0c6ab0	0.13712573
7	0x3ec67168	0.38758397
8	0xbea23162	-0.316783
9	0x3ff28ec1	1.8949815
10	0x3f19b56b	0.60042447
11	0x3f561a42	0.83633816
12	0x3de87a15	0.1135141
13	0x3dedeefc	0.11617848
14	0x3f758be2	0.9591657
15	0x3e4bb185	0.19891937

conv1_batchnorm.bias f4 [16]
0	0x3de40277	0.11133283
1	0xbcb1441d	-0.021638924
2	0xbe2992ee	-0.16559955
3	0x3e04e150	0.12976575
4	0x3da6dc50	0.0814749
5	0x3e42c8df	0.19021939
6	0x3d922aeb	0.07137092
7	0xbd8aa290	-0.067692876
8	0x3dbbbbd7	0.09166687
9	0xbfd8c0c0	-1.6933823
10	0xbe983962	-0.2973128
11	0xbf005292	-0.5012599
12	0x3c7b8b40	0.015353024
13	0xbbbf1f7a	-0.0058326097
14	0xbeab28b1	-0.33429483
15	0x3c9c1133	0.01905117

conv1_batchnorm.running_mean f4 [16]
0	0x402f9625	2.743539
1	0x3f22ab99	0.6354309
2	0xbfdab25f	-1.7085685
3	0x3ee18be4	0.4405204
4	0xbfbd4df1	-1.4789411
5	0xbe72beba	-0.23705569
6	0xbe7d6911	-0.24747111
7	0xbdfcf5b5	-0.123515524
8	0xbf494605	-0.78622466
9	0xbd73b32d	-0.059497047
10	0xbff4d10c	-1.9126296
11	0x3f55d8f7	0.8353419
12	0x3fb8a705	1.442597
13	0xbe672b32	-0.22575071
14	0x4000afb6	2.0107245
15	0xbff516e1	-1.9147607

conv1_batchnorm.running_var f4 [16]
0	0x38333355	4.2724732e-05
1	0x37964b1a	1.7916365e-05
2	0x37ed8ca6	2.8318096e-05
3	0x37baad21	2.2253547e-05
4	0x37c05d73	2.29317e-05
5	0x37d30e67	2.5159867e-05
6	0x378e934b	1.6996308e-05
7	0x37a1f21a	1.9305433e-05
8	0x37af0797	2.086516e-05
9	0x38b1d9ac	8.480562e-05
10	0x37985f6b	1.8164244e-05
11	0x378b003d	1.6570202e-05
12	0x37d8d87d	2.5850017e-05
13	0x378f5b90	1.7089566e-05
14	0x37a5d18f	1.9767116e-05
15	0x3806a84e	3.2104836e-05

conv2.weight f4 [64, 16, 3, 3]
0	0x3dd7575c	0.10514709
1	0xbfbc1a1b	-1.4695467
2	0x3f189345	0.59599715
3	0x3feb3240	1.837471
4	0xbf21787d	-0.63074476
5	0xbff5fcc2	-1.921776
6	0x3fbc3caa	1.4706013
7	0x40183488	2.3782063
8	0xbebb1df0	-0.36546278
9	0xbdf9e4fb	-0.12201878
10	0xbf765d32	-0.96235955
11	0x3fbd34b9	1.4781715
12	0x3f43faa0	0.765543
13	0xbf00eb5a	-0.5035912
14	0xc023bfaa	-2.5585732
15	0x3f062d85	0.5241321
16	0x3ff90d38	1.9457159
17	0xbf77dabe	-0.9681815
18	0xbf09ab75	-0.5377725
19	0xc0217c1e	-2.5232005
20	0xc004d7e7	-2.0756776
21	0x3ff27954	1.8943276
22	0x3e8d8932	0.27643734
23	0xc0370076	-2.8594031
24	0x400b0c9a	2.1726441
25	0x405ef551	3.483723
26	0x3eafde9b	0.34349522
27	0x3fadc404	1.3575444
28	0x4008eb56	2.1393638
29	0xbf7ad9bc	-0.97988486
30	0xbda87f57	-0.08227413
31	0x401113d4	2.2668352
32	0x3fee132c	1.8599601
33	0xc0065ebe	-2.0995326
34	0xc014d286	-2.3253493
35	0xbf23eb45	-0.6403087
36	0xbfcabd2a	-1.5838978
37	0xc003371a	-2.0502381
38	0x40a05037	5.009792
39	0x3ede948f	0.43472716
40	0xc0857102	-4.170045
41	0xbf872c2e	-1.0560358
42	0x3ed14e6b	0.4088014
43	0x3fd0b97b	1.6306604
44	0xc00b9176	-2.1807532
45	0xbf9b35f0	-1.2125835
46	0xc0094874	-2.1450472
47	0x40812899	4.036206
48	0x3fc8ace1	1.5677758
49	0xc019c495	-2.4026234
50	0xc03e7e80	-2.976471
51	0x3fb583ac	1.4180808
52	0x403c5f4c	2.9433165
53	0xc00117a6	-2.0170684
54	0xbff0cf0b	-1.8813184
55	0xc0b38109	-5.6095014
56	0x401614ce	2.3450198
57	0x409ac1ab	4.836141
58	0xbe99e298	-0.3005569
59	0xc0f638b2	-7.694421
60	0x403d4035	2.957044
61	0x40a948b9	5.2901273
62	0xbfd81504	-1.6881413
63	0xbe6779ca	-0.22605053
64	0xbfd091dd	-1.6294514
65	0x4027b7df	2.6205976
66	0x3f328d07	0.6974644
67	0xbf9389c4	-1.1526418
68	0xc0226da8	-2.537943
69	0x3e215dac	0.15758389
70	0x4014ba6f	2.323879
71	0xbe846df0	-0.25865126
72	0x3f93468a	1.1505902
73	0x3fcc8e00	1.5980835
74	0x3f9ae0e6	1.2099884
75	0xbf990459	-1.1954452
76	0x3ebf5872	0.37372166
77	0x40166845	2.350114
78	0xbfae8e4d	-1.3637177
79	0xc03c837f	-2.945526
80	0xbdf44104	-0.11926463
81	0x3f8393bb	1.0279459
82	0x3f07c373	0.53032607
83	0x3f17b69f	0.5926303
84	0x3f90676c	1.1281562
85	0xbf18ff49	-0.59764534
86	0xbf921c16	-1.1414821
87	0x3ea5459d	0.32279673
88	0x3ec052cc	0.3756317
89	0xbfacc219	-1.3496734
90	0x3f8acfea	1.08447
91	0x4005eff7	2.0927713
92	0x3fa2fc1a	1.2733185
93	0xbf6ec063	-0.9326231
94	0x3f1e637b	0.61870545
95	0x3fd96876	1.6985004
96	0xbfd30e0e	-1.6488664
97	0xc0292fe8	-2.643549
98	0xbf13e738	-0.57774687
99	0x3ebc4e04	0.3677827
100	0x3fcc2058	1.594737
101	0xbc242b4a	-0.010020087
102	0xc002a21f	-2.041145
103	0xbf058f8c	-0.5217216
104	0x3edc1331	0.42983392
105	0x3f0c11db	0.54714745
106	0xc0092113	-2.1426437
107	0xbfc6118b	-1.5474104
108	0xbf8150a1	-1.0102731
109	0xc0d174b6	-6.545497
110	0xc07f252f	-3.9866445
111	0x40a9460e	5.2898016
112	0x3ef026aa	0.46904498
113	0xc1084045	-8.515691
114	0x408f7922	4.4835367
115	0x40cdd355	6.4320474
116	0xbf2e7e85	-0.68161803
117	0xbe80a448	-0.25125337
118	0xc0e2d298	-7.0882072
119	0xc0bb6070	-5.855522
120	0x40aaab8b	5.3334403
121	0x3ef17efe	0.471672
122	0xc1015a45	-8.084538
123	0x408abb2b	4.3353477
124	0x40f76403	7.7309585
125	0x3fa062ca	1.2530148
126	0x3fa6981e	1.3015172
127	0x40154546	2.332353
128	0xbfd9eb03	-1.7024845
129	0x3f304a12	0.6886302
130	0x3fdb2b80	1.712265
131	0x3f1c7f11	0.6113139
132	0xbf8ee4a8	-1.116353
133	0xbf6fdd2f	-0.93696874
134	0x3e1eef5b	0.15520994
135	0xbf1d394c	-0.61415553
136	0xc042fd3c	-3.0467062
137	0xc09ef98a	-4.9679613
138	0x4013c813	2.3090866
139	0x3fc02bcc	1.5013366
140	0xc051be71	-3.2772486
141	0x3ffc1638	1.9694281
142	0x4086b35f	4.209396
143	0x3fc96809	1.5734874
144	0xc00e8d6d	-2.227382
145	0x3fc70270	1.5547619
146	0xbf2dd5c6	-0.6790432
147	0xc038a757	-2.8852136
148	0x4014580d	2.3178742
149	0xbe6be6bc	-0.23037237
150	0xbf8837c9	-1.0642024
151	0x3fe9b88c	1.8259444
152	0x3f8e1bd7	1.1102246
153	0xbeda9aec	-0.4269632
154	0x3ff0ee36	1.8822696
155	0xbfac2371	-1.3448316
156	0xbfd402e7	-1.6563386
157	0x4003ec72	2.0613065
158	0xbf48a861	-0.78381926
159	0xbf5968f5	-0.84925777
160	0x3f2ee762	0.6832181
161	0x3f5dd69b	0.86655587
162	0xbf82a676	-1.020705
163	0x3fd9c082	1.7011874
164	0xbf8b1440	-1.0865555
165	0xbff5169d	-1.9147526
166	0x3fdb0576	1.7111042
167	0xbf243332	-0.6414062
168	0xbf50c27c	-0.8154676
169	0x3f21c7d0	0.63195515
170	0xbdc91e5a	-0.09820242
171	0x3fb18352	1.3868201
172	0xc01a0856	-2.4067588
173	0x3ff5bb6d	1.9197823
174	0x401a05e5	2.4066098
175	0xc06c8111	-3.6953776
176	0x3fac3256	1.3452861
177	0x3f9cf222	1.2261393
178	0xc00bdde3	-2.185418
179	0xbf71b5b0	-0.9441786
180	0xbff6a038	-1.9267645
181	0x407f527b	3.9894092
182	0xc0560ef2	-3.3446622
183	0xc0bb8804	-5.8603535
184	0x40b21ab8	5.5657616
185	0xc09494bf	-4.6431575
186	0xc0167f40	-2.3515167
187	0x408163c5	4.043429
188	0x3f9a6fdc	1.2065387
189	0xbfead4d2	-1.8346198
190	0x40102440	2.2522125
191	0xbfe7ac12	-1.8099387
192	0xc04d4425	-3.2072842
193	0x408edd6d	4.4645295
194	0xbfe620e2	-1.7978785
195	0xbfbadcf9	-1.4598686
196	0x403c23e3	2.9396904
197	0x3eb8d637	0.36100933
198	0xbff1d995	-1.8894526
199	0x40633c16	3.5505424
200	0xc09460d5	-4.6368203
201	0xc08dbe1f	-4.429458
202	0x40a7520e	5.2287664
203	0xbff71c9c	-1.9305606
204	0xbfc92362	-1.5713923
205	0x3ff36d0c	1.9017653
206	0x3f9b31d6	1.2124584
207	0xbfe32804	-1.7746587
208	0x4029e981	2.654877
209	0xbfac1c2a	-1.3446095
210	0xc0597153	-3.3975418
211	0x406f11b3	3.7354553
212	0xbe955606	-0.29167193
213	0xbfb60a4e	-1.4221895
214	0x40024569	2.0354865
215	0x3f13665d	0.5757807
216	0x3e5f7430	0.21821666
217	0xbef5c59d	-0.4800233
218	0x3f7676d3	0.9627506
219	0x3f7ffbd2	0.9999362
220	0xbf8b5837	-1.0886296
221	0x3f7da86c	0.99085116
222	0xbecf71aa	-0.40516406
223	0xbf04b25e	-0.51834667
224	0xbf431bc5	-0.7621425
225	0xbfd845d6	-1.6896312
226	0x3fa4074c	1.2814727
227	0xbd3cbb4b	-0.046077054
228	0xbffc97ce	-1.9733827
229	0x3fb32600	1.3995972
230	0xbecedde9	-0.4040368
231	0xbf98b55a	-1.1930344
232	0x3f401c26	0.7504295
233	0xbdae0e89	-0.08498866
234	0x3f81aa88	1.0130167
235	0xbf353fd3	-0.70800513
236	0x4007e1bb	2.1231525
237	0x3fcd2570	1.602705
238	0xbfdfc41b	-1.7481722
239	0x3d8724de	0.06598829
240	0x3ef4dfdf	0.4782705
241	0xbf6ddc34	-0.9291413
242	0xbfe292c9	-1.7701045
243	0x3fbe445d	1.4864613
244	0xc0067518	-2.1008968
245	0x3f85c7a4	1.045155
246	0x40220a44	2.5318766
247	0xbfb1e7d5	-1.3898875
248	0xbe9af18b	-0.30262408
249	0x3fec9ba0	1.8484993
250	0x3e7599f3	0.23984508
251	0xc00f7985	-2.241792
252	0xc01ff481	-2.4992983
253	0x40876934	4.231592
254	0xc056c3a6	-3.3556914
255	0xc09906b9	-4.7820706

conv2.bias f4 [64]
0	0xbe0b8f7d	-0.13628955
1	0xbec1411e	-0.37744993
2	0x3e8660ba	0.26245672
3	0xbf572bbf	-0.84051126
4	0xbf355866	-0.7083801
5	0x3d411591	0.047139708
6	0x3ea7fe65	0.32811275
7	0xbf30e998	-0.69106436
8	0xbd4187e2	-0.04724873
9	0xbeaa03c1	-0.3320599
10	0xbf23c644	-0.63974404
11	0x3e3c2982	0.18375209
12	0x3eb93384	0.36172116
13	0xbe975760	-0.2955885
14	0xbecd0e56	-0.4005
15	0xbdedd93b	-0.11613699
16	0xbf5d11dd	-0.8635538
17	0xbf5bdcf1	-0.85884005
18	0xbedb175e	-0.42791265
19	0xbdf87ced	-0.12133203
20	0xbd6a9706	-0.057272933
21	0xbd5cb081	-0.053879265
22	0x3effe0fd	0.4997634
23	0xbe36bc3e	-0.17845246
24	0xbddeae6b	-0.10873111
25	0xbe578cdd	-0.21049829
26	0xbe9041cd	-0.28175202
27	0x3e64d114	0.22345382
28	0xbe85e710	-0.2615285
29	0xbeacd9da	-0.33759958
30	0x3e84fb36	0.2597291
31	0x3f0610d7	0.52369446
32	0xbf0cec33	-0.5504791
33	0x3dd1403f	0.10217332
34	0xbe89436b	-0.26809248
35	0xbd17f71d	-0.0371009
36	0xbeb60a3a	-0.35554677
37	0xbebab20f	-0.36463973
38	0x3ebf7ced	0.37399998
39	0xbd1a5bad	-0.037685085
40	0xbe7d838d	-0.24757214
41	0xbe92385f	-0.28558633
42	0x3c89c09a	0.016815472
43	0xbf085ec9	-0.5326963
44	0xbea0f3ff	-0.31436154
45	0xbee964d4	-0.45584738
46	0xbe74c188	-0.23901951
47	0xbe522cf5	-0.20524962
48	0x3e98daa0	0.29854298
49	0xbd8652ef	-0.06558787
50	0xbf4be14d	-0.79640657
51	0xbe299ce0	-0.1656375
52	0x3eb96a0f	0.3621373
53	0x3da1a5b2	0.07892932
54	0xbeb4fcc7	-0.35349104
55	0x3d9b2335	0.075750746
56	0xbed48432	-0.41507107
57	0xbe528d90	-0.20561814
58	0xbd7cb138	-0.061692446
59	0xbf0e4bb8	-0.5558429
60	0xbe8ba19b	-0.27271733
61	0xbeae34a6	-0.34024543
62	0xbe83ddc4	-0.2575513
63	0xbf321db4	-0.69576573

conv2_batchnorm.weight f4 [64]
0	0x400f4a85	2.2389233
1	0x3f5ecd14	0.87031674
2	0x4016ab21	2.3541949
3	0x3f255972	0.6458961
4	0x3fbb3192	1.4624503
5	0x3f2406b7	0.64072746
6	0x400dc9cc	2.2154417
7	0x3fb432ff	1.4078063
8	0x3f5dd7bd	0.86657315
9	0x3e8c648a	0.27420455
10	0x3fc61db3	1.5477813
11	0x3f8f181c	1.1179233
12	0x3e19b269	0.15009464
13	0x3f3d89f8	0.7403865
14	0x3f9bcbeb	1.2171606
15	0x3ed6adbf	0.41929433
16	0x3f1fc323	0.6240713
17	0x3f03fe3e	0.5155982
18	0x3f9955b1	1.1979276
19	0x3fafbaa3	1.3728832
20	0x3fe0d8fa	1.7566216
21	0x3f8ec29c	1.115314
22	0x3fb39749	1.4030544
23	0x3f620db2	0.8830215
24	0x3e8ade3c	0.27122676
25	0x3f5919ed	0.84805185
26	0x3f277dcc	0.65426326
27	0x3f9faf6c	1.247541
28	0x3f68ad74	0.9088967
29	0x3fca82d6	1.5821178
30	0x3f8f4281	1.119217
31	0x3fc0e0d9	1.5068618
32	0x3f85880e	1.0432146
33	0x3fe2c0a2	1.7715037
34	0x3fbffd74	1.4999223
35	0x3fa632a2	1.2984202
36	0x401640fb	2.347716
37	0x3f3ac233	0.72952574
38	0x3d8a6af1	0.06758679
39	0x3f1d2a3b	0.61392564
40	0x3f8ffc08	1.1248789
41	0x3f8abb7f	1.0838469
42	0x40201c6a	2.5017343
43	0x3f9b00cf	1.2109622
44	0x3fe63933	1.7986206
45	0x3f9190e9	1.1372348
46	0x3e236bcc	0.1595909
47	0x406e9bfb	3.7282703
48	0x3f9c6673	1.2218765
49	0x3fc74614	1.5568261
50	0x3e749402	0.23884585
51	0x3f9e9ffd	1.2392575
52	0x40121222	2.2823567
53	0x3fd411d4	1.6567941
54	0x3fd3c221	1.6543618
55	0x3f904fee	1.1274393
56	0x3ebc98f1	0.36835435
57	0x403379df	2.8043134
58	0x3f465208	0.7746892
59	0x3fccde1b	1.6005281
60	0x3fd00e55	1.6254374
61	0x3fb63cf6	1.4237354
62	0x3f24c60d	0.643647
63	0x3fe34fad	1.775869

conv2_batchnorm.bias f4 [64]
0	0xbf606327	-0.87651294
1	0xbec19af2	-0.37813526
2	0xbf8f3484	-1.1187901
3	0xbf6335a4	-0.88753724
4	0xc01b3736	-2.4252448
5	0xbddae685	-0.10688499
6	0xbf04202b	-0.51611584
7	0xc0133d76	-2.3006263
8	0xbef3e97e	-0.47639078
9	0xbe33031b	-0.17481653
10	0xbff2079a	-1.890857
11	0xbf53e096	-0.82764566
12	0xbc4dbac2	-0.012556734
13	0xbeebe3b3	-0.46072158
14	0xbf6fd642	-0.93686306
15	0xbd99863d	-0.07496307
16	0xbeb4c1ec	-0.353042
17	0xbe5637e5	-0.2091976
18	0xbfa6b6e0	-1.3024559
19	0xbf2c914e	-0.6740922
20	0xbfd1b40b	-1.638307
21	0xbeb885c8	-0.36039567
22	0x40257f4b	2.5858943
23	0xbe8977c5	-0.2684919
24	0x3e0b93e8	0.1363064
25	0xbee8a976	-0.45441788
26	0xbec78b77	-0.3897359
27	0x3fd5bab2	1.66976
28	0xbf33b436	-0.70196855
29	0xbe7b0c68	-0.24516451
30	0xbd53084d	-0.051521588
31	0x3fc647b6	1.5490634
32	0xbf6c9979	-0.9242168
33	0xbf708d15	-0.93965274
34	0xbf4c16c9	-0.7972227
35	0xbe148905	-0.14505394
36	0xbf271f8f	-0.6528253
37	0xbe04c0fb	-0.12964241
38	0x3d9660cd	0.07342682
39	0xbe1c9b37	-0.15293585
40	0xbec84611	-0.39115956
41	0xbf903b79	-1.126815
42	0xbf380368	-0.718802
43	0xbff5691c	-1.9172702
44	0xbff6a7e4	-1.9269986
45	0xbf2fe68a	-0.6871115
46	0xbc8f7978	-0.017513976
47	0xbfa94cf0	-1.3226604
48	0xbf0e6e7f	-0.55637354
49	0xbf414c74	-0.75507283
50	0xbd11ae7d	-0.035566796
51	0xbf75f66c	-0.96079135
52	0xbeb88ed7	-0.36046478
53	0xbf4a7a12	-0.79092515
54	0xbfa682bd	-1.3008648
55	0xbda33a68	-0.079701245
56	0xbdfc64a9	-0.12323887
57	0xbfec0abc	-1.8440776
58	0xbdb836aa	-0.08994801
59	0xc046cfc5	-3.1064312
60	0xbfa503a5	-1.2891737
61	0xbf53fec3	-0.8281061
62	0xbf8afe7d	-1.0858914
63	0xc01d276f	-2.4555318

conv2_batchnorm.running_mean f4 [64]
0	0x4025e8a5	2.5923245
1	0x3ee9cd5e	0.45664495
2	0x3fede0d7	1.8584241
3	0xc14a329e	-12.637358
4	0xc1425fe3	-12.14841
5	0xc093eca3	-4.6226363
6	0x3e85ba3b	0.26118645
7	0xc15cf54d	-13.809888
8	0x3ff7dd66	1.936444
9	0xc006ed03	-2.108216
10	0x409da3f9	4.926266
11	0xbf07bfe0	-0.53027153
12	0xc089c0fa	-4.3048067
13	0x3fa4be3a	1.2870553
14	0xc106ffca	-8.4374485
15	0x3daef56a	0.08542903
16	0xc0fbe5fb	-7.871824
17	0xc095b063	-4.6777816
18	0x3f257eb1	0.6464644
19	0xbfd161e9	-1.6358005
20	0x3ea84419	0.32864454
21	0xc06050d5	-3.5049336
22	0xbf4ee104	-0.80812097
23	0x3e623967	0.2209221
24	0xc02538c1	-2.581589
25	0x3fa9aacc	1.3255248
26	0xbfa22b67	-1.2669495
27	0x3f28a852	0.65881836
28	0x3e3d3d3e	0.18480393
29	0x40936cf2	4.607049
30	0x3f447730	0.76744366
31	0x3ffd45f1	1.978697
32	0xc11004fe	-9.001219
33	0xbda77b5d	-0.081778266
34	0xbeb7428b	-0.35792956
35	0xc038258f	-2.8772924
36	0xc0b2608f	-5.574287
37	0xc0be9e62	-5.956834
38	0x400eebe2	2.2331471
39	0x40e20575	7.063166
40	0x3d549ad5	0.05190547
41	0x3f43ac39	0.76434666
42	0xbeb9ba97	-0.3627517
43	0xc0353f53	-2.83199
44	0xbfd210de	-1.6411397
45	0xc03485ee	-2.8206744
46	0x404a1593	3.1575668
47	0xbf7ed007	-0.99536175
48	0x3fd7cb8f	1.6858996
49	0x3fa925d5	1.321467
50	0x3e817d64	0.25290978
51	0x406c1a38	3.6891003
52	0x3e381666	0.17977294
53	0x3f431ece	0.7621888
54	0xbfff593e	-1.994911
55	0xbfe1530f	-1.7603472
56	0xbd3e59ef	-0.046472486
57	0x3f403a24	0.75088716
58	0x3f28d658	0.6595206
59	0xc198dd54	-19.10807
60	0xbf025ebd	-0.5092581
61	0xc0acaa3e	-5.3957815
62	0xc0cd5d62	-6.4176493
63	0xc0bc63fa	-5.887204

conv2_batchnorm.running_var f4 [64]
0	0x433d20fd	189.12886
1	0x432aacdb	170.67522
2	0x4338cb64	184.7945
3	0x43e318e4	454.19446
4	0x4397e45d	303.7841
5	0x4357b31f	215.69969
6	0x431d4814	157.28156
7	0x439374c0	294.9121
8	0x431c0934	156.03595
9	0x43fe6965	508.8234
10	0x438f5ac8	286.70923
11	0x432d5aa8	173.35413
12	0x4448288c	800.63354
13	0x4310e461	144.8921
14	0x437934a6	249.20566
15	0x4366c097	230.7523
16	0x438cd880	281.6914
17	0x44121ccf	584.45013
18	0x43779467	247.5797
19	0x430e51b7	142.3192
20	0x439eabf2	317.34332
21	0x42cc8e02	102.27736
22	0x44218335	646.0501
23	0x43409236	192.57114
24	0x43cd74f4	410.9137
25	0x42b2ed45	89.46342
26	0x430f0690	143.02563
27	0x442f7709	701.8599
28	0x4284489f	66.14184
29	0x435439ee	212.22629
30	0x432cf396	172.9515
31	0x4445e3d3	791.55975
32	0x43f9a422	499.2823
33	0x4306fb40	134.98145
34	0x434d30ca	205.19058
35	0x434a2649	202.14955
36	0x43b35dfe	358.7343
37	0x43b3d7cf	359.686
38	0x44025d6c	521.4597
39	0x434bfae3	203.98003
40	0x429d7d24	78.744415
41	0x42ad8689	86.762764
42	0x438183a7	259.02853
43	0x4342c20c	194.758
44	0x43049718	132.59021
45	0x4380be19	257.48514
46	0x44001a31	512.40924
47	0x43b76c85	366.8478
48	0x43857746	266.93182
49	0x431a4f31	154.30934
50	0x4408bb28	546.9243
51	0x432cc833	172.78203
52	0x43845228	264.64185
53	0x42c3dca7	97.93096
54	0x4364af20	228.68408
55	0x43e3b394	455.40295
56	0x4354e08c	212.87714
57	0x432816e9	168.0895
58	0x446bd89b	943.38446
59	0x43e51f34	458.24377
60	0x42b88407	92.257866
61	0x43623483	226.20512
62	0x438356bd	262.67764
63	0x43ebd1f0	471.64014

conv3.weight f4 [128, 64, 3, 3]
0	0x3fc6a775	1.5519854
1	0x3ffde2ee	1.9834878
2	0xc02d5e40	-2.7088776
3	0x4073f944	3.812089
4	0x401957f7	2.395994
5	0x3f3cf22b	0.7380702
6	0x40c8474e	6.258704
7	0x40391c43	2.89235
8	0x4012b461	2.2922595
9	0xc095de44	-4.683382
10	0x3f8daf06	1.1069038
11	0xc00ac12b	-2.16804
12	0xc04b3e70	-3.175686
13	0x3f57af79	0.84252125
14	0x3fef5ba4	1.8699841
15	0xbfcd772b	-1.6051992
16	0x405df4b8	3.4680614
17	0x3fb2efc7	1.3979424
18	0x4015bd58	2.3396816
19	0xbeee076d	-0.4649004
20	0x405f08fb	3.4849231
21	0x3f02418e	0.5088128
22	0xbf57cb61	-0.84294707
23	0x40873fd4	4.2265415
24	0xbf8172c9	-1.0113155
25	0xc0340b44	-2.8131876
26	0xbfb1685a	-1.385997
27	0xc0153876	-2.331571
28	0xbfcd850f	-1.6056231
29	0x3faa644c	1.3311858
30	0xbf423a28	-0.7586999
31	0xbf5f6771	-0.87267214
32	0x40468e19	3.102423
33	0xbec94bb8	-0.3931558
34	0xbf98839b	-1.1915163
35	0x3ff858ab	1.9402059
36	0xc04b4c0b	-3.1765163
37	0x3f67fa3d	0.9061621
38	0x3f228e7b	0.6349866
39	0xc051598c	-3.2710905
40	0xbe04e719	-0.12978782
41	0x3fd0f383	1.6324314
42	0xc06ef541	-3.733719
43	0xbf64fd57	-0.89449066
44	0x3eb5045f	0.35354897
45	0xc008430a	-2.1290917
46	0xbf9032cb	-1.1265501
47	0x40178fb8	2.368147
48	0xc03ea945	-2.9790814
49	0xc01ba92c	-2.4322004
50	0x3fedf82c	1.8591361
51	0xc0325f3a	-2.7870622
52	0xc035b54c	-2.8391905
53	0xc001941f	-2.0246656
54	0x40e88a16	7.266856
55	0xc00d8eef	-2.211849
56	0x3fd6b2eb	1.6773351
57	0x4102ac08	8.167
58	0x40498b6a	3.1491342
59	0x404b2986	3.1744094
60	0x40e85e5b	7.261518
61	0x406bf3d5	3.6867573
62	0x40b1e1f1	5.5588307
63	0xc05a7bf6	-3.413816
64	0xbf3eb5b7	-0.74496025
65	0x3e2ad12b	0.16681354
66	0xc002aaaa	-2.0416665
67	0xbf943d2f	-1.1581172
68	0x40512a7b	3.2682178
69	0xc01d50aa	-2.4580483
70	0xbd7c9b45	-0.061671514
71	0x4035b54e	2.839191
72	0xbe09ec1f	-0.1346898
73	0x4002c3c0	2.0431976
74	0x3fa8f8a9	1.3200885
75	0x3e1e9266	0.15485534
76	0x3f2d1de6	0.67623746
77	0x4066dea0	3.607338
78	0x3d0a8bc2	0.03382469
79	0x3fc785ab	1.5587667
80	0x407da60e	3.9632602
81	0x3f9dea4d	1.2337128
82	0xbf076bce	-0.5289887
83	0xc01d3ea4	-2.4569483
84	0x3f233485	0.63752013
85	0xc0186055	-2.3808796
86	0xc090c118	-4.523571
87	0x3f38334c	0.7195327
88	0xc000c0eb	-2.0117748
89	0xc0272b8d	-2.6120331
90	0x3be4da26	0.006984013
91	0xbfb52631	-1.415228
92	0xc08075f0	-4.0143967
93	0x3ee5796e	0.44819206
94	0xc01c10d5	-2.4385273
95	0xc0c7354d	-6.2252564
96	0x3f8aad30	1.0834103
97	0xbfb2f301	-1.3980409
98	0xc063f04c	-3.5615416
99	0x3dbeb5dc	0.09312031
100	0x3feac6b5	1.834189
101	0xbf60845a	-0.8770195
102	0x40859572	4.174493
103	0x3fe9780f	1.8239764
104	0xbfdb05bc	-1.7111125
105	0x4095e126	4.683734
106	0x400c535b	2.1925876
107	0x3ff6a8f3	1.9270309
108	0xc02a17ce	-2.657703
109	0xc007914d	-2.1182435
110	0x4002504b	2.0361507
111	0xc023d295	-2.559728
112	0xbf28a2e9	-0.6587358
113	0x403bbbb2	2.933331
114	0xc07b9dcc	-3.9315062
115	0xc003226b	-2.0489757
116	0x3e4a5ebd	0.19762702
117	0x3ff9491a	1.9475434
118	0x408439c8	4.1320534
119	0x3f106149	0.56398445
120	0x4030c759	2.7621672
121	0x4010bd51	2.261555
122	0x3f10d570	0.5657568
123	0x3fd0c4dc	1.6310077
124	0x3f36f822	0.7147237
125	0x4023df57	2.5605066
126	0xbfa1d835	-1.2644106
127	0xbe850dc7	-0.25987074
128	0x3ff53c59	1.9159042
129	0xbf671f35	-0.90281993
130	0x405a286b	3.408717
131	0x40ace3e1	5.4028172
132	0xbedd67b3	-0.4324318
133	0x3fc5b88b	1.5446943
134	0x3f68d3d1	0.90948206
135	0x4015cac2	2.3405004
136	0x405520a4	3.3301172
137	0x3fb84723	1.4396709
138	0x4027e624	2.6234217
139	0x3f741af5	0.95353633
140	0xc09ffeda	-4.99986
141	0x4023afb8	2.5576
142	0xbf9c6c74	-1.2220597
143	0xbf9a5e23	-1.2059978
144	0x3fedc384	1.8575292
145	0x40195653	2.3958938
146	0xbf0bd7c0	-0.54626083
147	0x407364f3	3.8030365
148	0x4000a4e6	2.0100646
149	0xbff08c04	-1.8792729
150	0x40ae141c	5.4399548
151	0xbc6e0974	-0.014528621
152	0xbfaeccc8	-1.3656244
153	0x3e928294	0.28615248
154	0x3e72cc95	0.23710854
155	0xbfdc6095	-1.7216974
156	0x3ff785e4	1.9337735
157	0xbf1b92df	-0.6077098
158	0xc04c537f	-3.1925962
159	0x400a85b3	2.1644104
160	0xbfc2ed65	-1.5228697
161	0xbf24c3dd	-0.64361364
162	0x3f036ee2	0.5134107
163	0x3f38fd5e	0.7226161
164	0xbf08e819	-0.5347915
165	0x3f966dc6	1.175225
166	0xbf9a2c88	-1.204484
167	0xc04d2647	-3.2054613
168	0x3efb685b	0.49103054
169	0xbfa5dddf	-1.2958335
170	0xbfd283b1	-1.6446439
171	0xbf35d8af	-0.7103376
172	0x3f6b66f6	0.9195398
173	0xc055bbcd	-3.3395875
174	0x404e2c09	3.2214377
175	0x3ffff0a1	1.9995309
176	0xc01f7f86	-2.4921584
177	0x407b681d	3.9282296
178	0xbf738c08	-0.95135546
179	0x3e9323a8	0.2873814
180	0xbc7b7772	-0.015348302
181	0x3e63632b	0.22205798
182	0xc02f63e8	-2.7404728
183	0x3fd0fc0f	1.6326922
184	0xbc088274	-0.008331884
185	0xc090c2cd	-4.5237794
186	0x3fdb8f62	1.7153132
187	0xbfa144f3	-1.2599167
188	0xc08a7f3c	-4.3280315
189	0x3e400dd7	0.1875528
190	0x3fb13924	1.3845563
191	0x3f2d1084	0.67603326
192	0xc000baf3	-2.0114105
193	0xc00f0d15	-2.2351735
194	0x3f0a43a7	0.5400948
195	0xbfd8ce02	-1.6937869
196	0x3f8016c3	1.0006946
197	0x3e174dc4	0.14775759
198	0x400f0e04	2.2352304
199	0x3e82c1ba	0.25538427
200	0x40049051	2.0713084
201	0x3fa1069d	1.2580143
202	0xbf23c95b	-0.6397912
203	0x3f2dd4c8	0.67902803
204	0x3fc0db33	1.5066894
205	0x3e85f94b	0.26166758
206	0x3f6bd7cd	0.9212616
207	0x4020668b	2.5062587
208	0x3db0c38b	0.08631047
209	0x400f3bf0	2.2380333
210	0x3e10bcea	0.14134565
211	0xc0227cbb	-2.538863
212	0x4029eb97	2.6550043
213	0x3f2fc9ed	0.6866749
214	0xbf41886e	-0.755988
215	0x3f71e983	0.94496936
216	0x3ffc6978	1.9719687
217	0x3ef9ec9c	0.4881333
218	0x40243a7b	2.5660694
219	0x3fbf0220	1.4922523
220	0x3e6f7bdc	0.23387092
221	0x40348060	2.8203354
222	0x3fb8654a	1.4405911
223	0x400aeb9b	2.1706302
224	0x401bf0c1	2.4365695
225	0x4085bc49	4.179234
226	0xc0012aad	-2.0182297
227	0x400ce4f6	2.2014747
228	0x40c77080	6.232483
229	0x3f02bba0	0.51067543
230	0x402cccef	2.7000082
231	0x4075e504	3.842103
232	0xbd6463f7	-0.055759396
233	0x40120e43	2.2821205
234	0x3ffdba72	1.9822524
235	0x4093b361	4.615647
236	0x3f691adf	0.9105663
237	0x4069a3f9	3.650633
238	0x40524484	3.2854319
239	0x3f55b870	0.83484554
240	0x400c1e5d	2.1893532
241	0x3fe0bd9d	1.7557865
242	0x3ff5faa5	1.9217116
243	0x3e846891	0.25861028
244	0x3f3bf9b5	0.734279
245	0x402a61e5	2.662225
246	0x3f835c14	1.0262475
247	0x3feae4e5	1.8351103
248	0x408495a5	4.143267
249	0x401b6052	2.427754
250	0x3fe573e9	1.7925998
251	0x40531b57	3.2985437
252	0x3faae19d	1.3350102
253	0x403464e8	2.8186588
254	0x3f421da5	0.75826484
255	0x3f518b45	0.81853133

conv3.bias f4 [128]
0	0x3e3f367a	0.18673125
1	0xbf575be7	-0.84124607
2	0xbd4ae459	-0.049534176
3	0xbee2a350	-0.44265223
4	0x3e81cf36	0.25353402
5	0xbf9a9ddf	-1.2079428
6	0x3ed96e18	0.42466807
7	0xbe2792fb	-0.16364662
8	0x3f256efd	0.6462248
9	0xbf1ccc8b	-0.6124961
10	0x3eb8d9ec	0.3610376
11	0xbf2f51d5	-0.6848424
12	0xbe70a4a6	-0.23500308
13	0xbfa1af29	-1.263158
14	0x3d9fd645	0.078045405
15	0xbeb47b8d	-0.35250512
16	0xbfbe48a8	-1.4865923
17	0x3ec46172	0.38355595
18	0x3ec158dd	0.3776311
19	0x3db7db34	0.089773566
20	0xbf283bf8	-0.65716505
21	0xbf670993	-0.90248984
22	0xbf4b1302	-0.7932588
23	0xbfba5f9b	-1.4560426
24	0x3f1cb73c	0.61217093
25	0xbefbe214	-0.4919592
26	0x3e8e8eeb	0.27843413
27	0xbfacebfe	-1.3509519
28	0xbf858cdc	-1.0433612
29	0xbf076740	-0.5289192
30	0x3f1f549a	0.62238467
31	0xbf9713fc	-1.1802974
32	0x3ec3ee00	0.38267517
33	0x3ed82476	0.42215317
34	0x3e035132	0.12823942
35	0xbfad1e1d	-1.3524815
36	0xbf7154b0	-0.9426985
37	0x3e3a4c7e	0.18193242
38	0xbf96495f	-1.1741141
39	0xbece7a99	-0.4032791
40	0x3ed3dbbe	0.41378587
41	0x3f494185	0.786156
42	0x3ec91aeb	0.3927835
43	0xbef18729	-0.47173432
44	0xbed5b065	-0.4173614
45	0xbf8277f7	-1.019286
46	0xbe151a6c	-0.1456086
47	0xbf85336c	-1.0406318
48	0xbebb8cf0	-0.36630964
49	0xbf3649fa	-0.7120663
50	0xbf6e074c	-0.92979884
51	0xbfa10630	-1.2580013
52	0x3a9c1355	0.0011907617
53	0x3e892415	0.2678534
54	0xbffbd2bd	-1.9673687
55	0x3f0d5b33	0.55217284
56	0xbfa374d4	-1.2770028
57	0xbeccfdb7	-0.4003732
58	0xbfda9424	-1.7076459
59	0x3fc1a5fd	1.5128781
60	0x3f48820c	0.78323436
61	0xbfdc9ff8	-1.7236319
62	0xbfb42d9c	-1.4076419
63	0xbf95e1ce	-1.1709535
64	0x3f12dc58	0.5736747
65	0xbf7a2d02	-0.97724926
66	0xbf1978ed	-0.59950143
67	0xbf0e2991	-0.55532175
68	0xbf36812b	-0.71290845
69	0x3ea437e9	0.32073906
70	0xbfb69668	-1.426465
71	0xbf653f49	-0.8954969
72	0xbdd97dc5	-0.10619692
73	0xbf46863d	-0.7754858
74	0xbf88d87e	-1.0691068
75	0x3fb88c86	1.4417884
76	0x3f8cfbc4	1.1014333
77	0xbe82c149	-0.2553809
78	0xbf3c5456	-0.73566186
79	0xbf175d24	-0.59126496
80	0x3f1bbf41	0.60838705
81	0xbf3865e7	-0.7203049
82	0xbfcf20fb	-1.618194
83	0x3f11437b	0.5674359
84	0xbf2e3d40	-0.6806221
85	0x3e6005ef	0.21877263
86	0xbd1685fd	-0.036748875
87	0xbf8ce7e2	-1.1008265
88	0xbd422c86	-0.047405742
89	0xbf8bd28e	-1.0923631
90	0x3f59d85c	0.85095763
91	0xbf40fea3	-0.75388545
92	0xbed84905	-0.4224321
93	0xbf42bd50	-0.7607012
94	0x3f947f48	1.1601343
95	0xbf5fcf39	-0.8742557
96	0xbf149f97	-0.58056015
97	0x3fadaf86	1.356919
98	0xbfd3eb2f	-1.6556147
99	0xbf5103b9	-0.81646305
100	0xbfc9a7b6	-1.5754306
101	0x3f048e71	0.5177985
102	0xbf4a8cf9	-0.7912136
103	0xbfaef014	-1.3667016
104	0xbf4dd3cf	-0.8040132
105	0xbe24626b	-0.16053168
106	0xbeb895b1	-0.36051705
107	0x3f1e1067	0.6174378
108	0xbe9d27bf	-0.30694386
109	0x3f97c0dc	1.1855731
110	0xbf7560ec	-0.95851016
111	0xbf073f00	-0.52830505
112	0x3ccf9167	0.025337888
113	0x3d0e604d	0.03475981
114	0xbf7a26f5	-0.97715694
115	0xbed523b3	-0.416288
116	0xbf987610	-1.191103
117	0x3ed64b08	0.4185412
118	0xbeffb652	-0.49943787
119	0xbe750f9f	-0.2393174
120	0x3dd8fcd3	0.105950974
121	0x3f46029e	0.77347744
122	0xbf907770	-1.128645
123	0xbf88fa2b	-1.0701345
124	0x3e2bdfca	0.16784588
125	0xbf82852e	-1.0196893
126	0x3c92dafb	0.017926684
127	0x3fd5389d	1.6657902

conv3_batchnorm.weight f4 [128]
0	0x403f2ab8	2.9869823
1	0x401d6c31	2.4597285
2	0x3f9ff09f	1.2495307
3	0x4032979d	2.7905037
4	0x408114fc	4.0338116
5	0x3fe05be2	1.752804
6	0x3fcda2b2	1.6065276
7	0x3fd6b8f1	1.677519
8	0x3ffb2ac0	1.9622421
9	0x401ccdce	2.4500613
10	0x4012844a	2.2893243
11	0x40323e71	2.7850611
12	0x4007f391	2.124241
13	0x3fd8abd6	1.692744
14	0x4058474d	3.3793519
15	0x400f2b42	2.2370152
16	0x4039eb45	2.9049847
17	0x4033bab6	2.808271
18	0x401c377e	2.440887
19	0x3fa73fc6	1.3066337
20	0x401dc031	2.4648554
21	0x3fe550c1	1.7915269
22	0x40025502	2.0364385
23	0x400ef7b5	2.2338688
24	0x3fe075c7	1.7535943
25	0x4019c1b6	2.4024482
26	0x3fb4eb94	1.4134393
27	0x3ff7c0ab	1.9355673
28	0x3fe6b322	1.8023417
29	0x403ad527	2.9192598
30	0x4018747b	2.3821094
31	0x3fba97fe	1.4577634
32	0x40047e22	2.0701985
33	0x400c8180	2.195404
34	0x40399b03	2.9000862
35	0x400826e6	2.1273742
36	0x403fed76	2.9988685
37	0x3f98961a	1.1920807
38	0x3ff6666c	1.9250007
39	0x3ff30172	1.8984816
40	0x40813b14	4.0384617
41	0x3fae34e3	1.360989
42	0x3fdc27a3	1.7199596
43	0x3fb99f83	1.4501804
44	0x40181843	2.3764808
45	0x400d9433	2.2121704
46	0x3f2b5af2	0.66935647
47	0x3fdf42c0	1.7442245
48	0x3fba1f42	1.4540789
49	0x400d0497	2.2034051
50	0x3f8eaff5	1.1147448
51	0x4039ff54	2.906209
52	0x401de62b	2.4671733
53	0x3fc0be19	1.5058013
54	0x400988d1	2.1489756
55	0xbfdbb968	-1.7165956
56	0xbf712135	-0.94191295
57	0x3fa50bd1	1.2894231
58	0x400d7248	2.2101002
59	0x3f6666ce	0.9000062
60	0x3faf6875	1.3703753
61	0x3fd4bf8a	1.6620953
62	0x3fade41a	1.3585236
63	0x402c3e07	2.6912858
64	0x3fec0979	1.8440391
65	0x401caf51	2.4482005
66	0x3fbcdc4e	1.4754732
67	0x4013162a	2.2982278
68	0x4003ecb6	2.0613227
69	0x40039225	2.055795
70	0x3fcf9f4d	1.622049
71	0x4039858c	2.898776
72	0x3f8be157	1.0928143
73	0x4018cd12	2.3875165
74	0x40247435	2.5695927
75	0x3fb5e89d	1.4211613
76	0xbfcf2c4b	-1.6185392
77	0x3ff3ab03	1.9036564
78	0x3ff2559a	1.8932374
79	0x401b8894	2.430211
80	0x3fc88718	1.5666227
81	0x3fc67dd4	1.550715
82	0x3fe3f237	1.7808293
83	0x3ff91f64	1.9462705
84	0x4014dfff	2.3261716
85	0x3f8cf121	1.1011087
86	0x3fc95806	1.5729988
87	0x3fc36c13	1.5267357
88	0x4041a26d	3.0255387
89	0x3fc6a130	1.551794
90	0xc037612c	-2.865306
91	0x3ff9cf4b	1.9516386
92	0x4019a4cb	2.4006832
93	0x4046d0d9	3.106497
94	0xbfa7cde4	-1.3109708
95	0x3fdbda03	1.7175907
96	0x4020f9db	2.51525
97	0x4020ad54	2.510579
98	0x401e1503	2.4700325
99	0x400dd240	2.2159576
100	0x3fd6adb5	1.6771761
101	0x40008516	2.008123
102	0x3f8c25a6	1.0948989
103	0x4012f90e	2.296451
104	0x3f982cab	1.1888632
105	0x3fceb050	1.6147556
106	0x3ff11e7c	1.8837428
107	0x4079dc96	3.9040885
108	0x4008fad2	2.1403089
109	0xbfc433ab	-1.5328268
110	0x3fd170e8	1.6362581
111	0x3fc47b2c	1.5350089
112	0x3fa3b8a6	1.2790725
113	0x402d8be3	2.711663
114	0x40256711	2.5844157
115	0x4063cd87	3.5594194
116	0x3fb00244	1.3750691
117	0x4062cfb6	3.5439277
118	0x4061cdf5	3.5281956
119	0x3fa80228	1.3125658
120	0x40612a2c	3.518199
121	0x3fc758b5	1.5573946
122	0x3ffe8d4c	1.988687
123	0x3ffcb970	1.9744091
124	0x4014cf15	2.3251393
125	0x3fd4399b	1.658008
126	0x3fa33b52	1.2752478
127	0x40640183	3.5625923

conv3_batchnorm.bias f4 [128]
0	0x3f74620f	0.95462126
1	0xc075baa2	-3.8395162
2	0xbe90fe8e	-0.2831921
3	0xbfb35e79	-1.4013206
4	0xc0131b5c	-2.298545
5	0xc0808c19	-4.017102
6	0x3e96083a	0.2930315
7	0x3f8bda54	1.0926003
8	0x3ffd2d03	1.9779361
9	0xc01eb28f	-2.4796484
10	0x3ecbb880	0.397892
11	0xc04057b7	-3.0053537
12	0xc02972df	-2.6476362
13	0xc019af82	-2.4013371
14	0x3f1efd7b	0.6210553
15	0xc003bd71	-2.0584376
16	0xc079c18e	-3.9024386
17	0x3f3d0b22	0.7384511
18	0x4028bdbc	2.6365805
19	0x3c3058a8	0.010763325
20	0xbf5affe5	-0.85546714
21	0xc02aa7ed	-2.6664994
22	0xc031622b	-2.7716167
23	0xc04caf4d	-3.1981995
24	0xbfbc52a9	-1.4712726
25	0xc02c9931	-2.69685
26	0xbe78821e	-0.24268386
27	0xc03621ad	-2.8458054
28	0xc01100a3	-2.2656639
29	0xbffe7064	-1.9878049
30	0x4007bf83	2.121064
31	0xbf957e5b	-1.1679186
32	0xbf9d1f2d	-1.2275139
33	0x3fba39e3	1.4548916
34	0xbf8f299e	-1.1184576
35	0xc07b1811	-3.923344
36	0xc0474487	-3.1135576
37	0xbeabc3a5	-0.33547702
38	0xc012fad5	-2.2965596
39	0x40062119	2.0957701
40	0x40184442	2.3791661
41	0x3f892b05	1.0716254
42	0x3f5272aa	0.82206213
43	0xbfc7ef5d	-1.5619923
44	0xbfb7b112	-1.4350913
45	0xc039da3e	-2.9039454
46	0x3e863ed8	0.2621982
47	0xc04d218b	-3.2051723
48	0xc0213a58	-2.519186
49	0xc027f743	-2.6244667
50	0x3ddbb0d7	0.10727089
51	0xc067d5e7	-3.6224306
52	0xbf59b766	-0.8504547
53	0x3f4a76a5	0.7908729
54	0xc02ea156	-2.7285972
55	0xc024b72b	-2.5736797
56	0xbe3d753a	-0.1850175
57	0xbf1e57dd	-0.6185282
58	0xc079d43f	-3.9035795
59	0x407d0a15	3.9537404
60	0xbf371151	-0.715108
61	0xc03f5a11	-2.9898722
62	0xbfc7f400	-1.5621338
63	0xc067eb2a	-3.6237283
64	0x3fc041f4	1.5020127
65	0xc020311c	-2.5029974
66	0xbf064a8d	-0.52457505
67	0xbff3e93d	-1.9055554
68	0xc04cfd03	-3.2029426
69	0xbf4cc153	-0.7998249
70	0xc03a48f2	-2.9107022
71	0xc00edc25	-2.2321866
72	0xbfdb9f26	-1.7157943
73	0xc0072eea	-2.1122384
74	0xbff67157	-1.9253339
75	0x3efe9ed6	0.49730557
76	0xbf0c1bb0	-0.5472975
77	0x3f0678d7	0.52528137
78	0xc030fb91	-2.7653544
79	0xc02620db	-2.5957553
80	0x3fdea2dc	1.7393451
81	0x3ecc2687	0.39873144
82	0xc08a3998	-4.3195305
83	0x3f32525b	0.69656914
84	0xc0125072	-2.28616
85	0xbe790beb	-0.24320953
86	0xbfbece3c	-1.4906688
87	0xbfaa7804	-1.3317876
88	0xbdaa16e0	-0.08305144
89	0xc0145882	-2.317902
90	0xc016dc3c	-2.357192
91	0xc022497c	-2.5357351
92	0xbf2dadcd	-0.67843324
93	0xc01e47c3	-2.47313
94	0xbf0713ed	-0.5276478
95	0xc046463f	-3.0980375
96	0xc029bea2	-2.6522603
97	0x3ffaa213	1.9580711
98	0xc063bad3	-3.5582778
99	0xc0001848	-2.001482
100	0xc0b5d5b8	-5.6823387
101	0x3f754d44	0.95821023
102	0xbf8dfbd0	-1.1092472
103	0xbf6e3e75	-0.9306405
104	0xbf180524	-0.59382844
105	0xbf2363a6	-0.63823926
106	0xbff76d6b	-1.9330267
107	0xbe3bb036	-0.18328938
108	0xbe803bb4	-0.2504555
109	0xc00a736d	-2.163295
110	0xc06e1b78	-3.7204266
111	0xbeab6e9c	-0.33482826
112	0x3f977062	1.1831172
113	0x3fbbd4b0	1.4674282
114	0xc0510fc9	-3.2665884
115	0xc0142cb6	-2.315229
116	0xbf2216b6	-0.63315904
117	0x3fa1ebd7	1.2650098
118	0xc034f803	-2.8276374
119	0xbf272d5a	-0.65303576
120	0x40200f63	2.5009391
121	0xbf9d65c2	-1.2296679
122	0xc05c14dd	-3.4387734
123	0xc03912e1	-2.8917773
124	0xbfd7e174	-1.6865678
125	0xbed9e068	-0.4255402
126	0xbf490574	-0.78523946
127	0x403ea9f9	2.9791243

conv3_batchnorm.running_mean f4 [128]
0	0x40a8e1da	5.27757
1	0xc0cee727	-6.465717
2	0xc1f9a6f2	-31.206516
3	0x428c86a2	70.262955
4	0x420bf9c5	34.993916
5	0xc1f86eb2	-31.05405
6	0xc2098237	-34.377163
7	0x41be9e38	23.827255
8	0x4238e00e	46.218803
9	0x4213e193	36.970287
10	0xc28b39ee	-69.613144
11	0x416afe5f	14.687102
12	0x414642a3	12.391269
13	0xc1f37a1c	-30.434624
14	0x421af871	38.74262
15	0xc2586ea8	-54.108063
16	0x405006ed	3.2504227
17	0xc2b8e9c9	-92.45661
18	0xc22fe744	-43.975845
19	0xc1ed3cb0	-29.654633
20	0xc0ac290e	-5.3800116
21	0x41079ba7	8.475501
22	0x40b7db18	5.745495
23	0x40f00844	7.501009
24	0x412a44c7	10.641791
25	0x4240225d	48.033558
26	0xc1c717d3	-24.886633
27	0xc2527747	-52.61648
28	0x4204dffd	33.21874
29	0x41a30ea0	20.382141
30	0xc1e3a385	-28.454844
31	0xc22c0493	-43.004467
32	0x421143fb	36.316387
33	0x3fe958ab	1.8230184
34	0xc2c44d21	-98.15064
35	0xc1dae8c0	-27.363647
36	0xc1274f6a	-10.456888
37	0xc177e8e4	-15.494358
38	0x41c6597c	24.793694
39	0xc139e054	-11.617268
40	0xbf79595a	-0.97401965
41	0xc2497b2d	-50.37029
42	0xc2d1a447	-104.820854
43	0xc2d371dd	-105.72239
44	0x42cc5c8c	102.180756
45	0x40e95585	7.2916894
46	0xc14f9a33	-12.975146
47	0xc1efece1	-29.990664
48	0xc24e9632	-51.646675
49	0xc2619e8f	-56.404842
50	0x4187ac93	16.959265
51	0x411058f4	9.021717
52	0x4261b2bb	56.42454
53	0x417faa1a	15.979029
54	0xc2bc257d	-94.07322
55	0x421af0c4	38.735123
56	0xc2bdc6ca	-94.88826
57	0x4281d037	64.90667
58	0xc1c235a8	-24.2762
59	0xc06bf395	-3.686742
60	0x419b1bb2	19.388523
61	0xc29aa724	-77.32645
62	0xc20e45e4	-35.568253
63	0xc1b96dfb	-23.178701
64	0xc1221246	-10.129461
65	0xc03fe445	-2.9983075
66	0xc14bcc3f	-12.737365
67	0xc25ed622	-55.709114
68	0xc1ccea07	-25.614271
69	0xc1e40f32	-28.50742
70	0xc14d458b	-12.829478
71	0xc2477a3a	-49.86936
72	0xc29ace6c	-77.40317
73	0xc1038efe	-8.22241
74	0x4295bb74	74.86612
75	0x41ec394e	29.52798
76	0x421790b4	37.89131
77	0x415ff273	13.996692
78	0xc1bf9d0d	-23.951685
79	0x41cbbe04	25.467781
80	0x420b9038	34.89084
81	0x4147415a	12.453455
82	0xc23d60b3	-47.344433
83	0xc28c5041	-70.156746
84	0xc180530e	-16.040554
85	0xc22c007b	-43.00047
86	0xc118fa09	-9.561044
87	0xc28518a3	-66.54812
88	0xc27e8587	-63.630398
89	0xc28a02ba	-69.005325
90	0xc20b7571	-34.86469
91	0xc203203a	-32.78147
92	0x42330453	44.754223
93	0x41fde7ff	31.73828
94	0x423f61ae	47.84539
95	0xc0f2793f	-7.5773005
96	0x418aaea5	17.335276
97	0x41dc84b2	27.564793
98	0xc1b50b98	-22.630661
99	0xc2966756	-75.20183
100	0xc113a03d	-9.226621
101	0x428e5e8b	71.184654
102	0x418a3f57	17.280928
103	0xc252a970	-52.665466
104	0xc21867cf	-38.101376
105	0xc014423d	-2.3165429
106	0x41b9d10f	23.22708
107	0xc1bd476a	-23.65987
108	0x3fbff5d7	1.4996899
109	0xc1270e4a	-10.440989
110	0xc22e2f56	-43.546227
111	0xc2a19dd8	-80.80829
112	0xc18ef457	-17.869307
113	0xc28bd143	-69.908714
114	0xc235f684	-45.490738
115	0x4148d89e	12.552885
116	0xc23e7821	-47.617313
117	0xc1a39184	-20.446053
118	0x4232d28a	44.705605
119	0xc16de023	-14.867221
120	0xc1b6c577	-22.846418
121	0x42097373	34.362743
122	0xc19ec485	-19.845957
123	0xc23115c0	-44.27124
124	0x41b47ed8	22.561935
125	0xc2219ed8	-40.40512
126	0x414123ce	12.071241
127	0x4221c52c	40.44255

conv3_batchnorm.running_var f4 [128]
0	0x45c0f711	6174.8833
1	0x45734039	3892.014
2	0x45fba023	8052.017
3	0x4584e8ff	4253.1245
4	0x459cf86d	5023.053
5	0x44b1e145	1423.0397
6	0x45856125	4268.143
7	0x45a82edb	5381.857
8	0x45a35f77	5227.933
9	0x459f60a0	5100.078
10	0x459fc2e0	5112.3594
11	0x45290018	2704.0059
12	0x44f1add9	1933.4327
13	0x450fc63b	2300.3894
14	0x45a18e8c	5169.8184
15	0x4548eedb	3214.9285
16	0x453ae1fe	2990.1245
17	0x45c22818	6213.0117
18	0x4600a2ed	8232.731
19	0x4593df93	4731.947
20	0x4562e662	3630.399
21	0x452fcd3b	2812.827
22	0x4518e7ba	2446.483
23	0x452579af	2647.6052
24	0x46150ee5	9539.724
25	0x45353caf	2899.7927
26	0x458708fc	4321.123
27	0x4512d0d8	2349.0527
28	0x4551fa12	3359.6294
29	0x454062ad	3078.1672
30	0x460e379b	9101.901
31	0x45828c7b	4177.56
32	0x454ae4e1	3246.305
33	0x458b9fa2	4467.954
34	0x45c0a891	6165.071
35	0x45980db3	4865.7124
36	0x45a0547c	5130.5605
37	0x456ee321	3822.1956
38	0x453c9ce4	3017.8057
39	0x45dc2a35	7045.276
40	0x45db5ccb	7019.599
41	0x45bdf123	6078.142
42	0x45a6c7c7	5336.972
43	0x45b3d929	5755.145
44	0x459260da	4684.1064
45	0x45384c2b	2948.7605
46	0x45af0c46	5601.534
47	0x451ecfc2	2540.9849
48	0x44c9bb88	1613.8604
49	0x452831da	2691.1157
50	0x456ff830	3839.5117
51	0x45496e9f	3222.9138
52	0x457ba433	4026.2625
53	0x45b052a7	5642.3315
54	0x453e0f07	3040.9392
55	0x45870582	4320.6885
56	0x45697be8	3735.7441
57	0x45425f0a	3109.94
58	0x4549b882	3227.5317
59	0x45a7e7d2	5372.9775
60	0x455b2c1c	3506.7568
61	0x4512efb7	2350.9822
62	0x4551765a	3351.397
63	0x450ee8e9	2286.557
64	0x45c8210f	6404.1323
65	0x453128c6	2834.5483
66	0x4583e8ef	4221.1167
67	0x45999136	4914.1514
68	0x451cc004	2508.001
69	0x45dfcc8d	7161.569
70	0x44f6e431	1975.131
71	0x45dcaf5a	7061.919
72	0x45848045	4240.0337
73	0x45880adb	4353.357
74	0x45705e0f	3845.8787
75	0x45952eb9	4773.8403
76	0x45ed9350	7602.414
77	0x45ffa4c2	8180.5947
78	0x4508dad8	2189.6777
79	0x454f0f8b	3312.9714
80	0x45a0c8c1	5145.094
81	0x45920b52	4673.415
82	0x44a49d23	1316.9105
83	0x4634693a	11546.307
84	0x4565b6b6	3675.4194
85	0x4557e58b	3454.3464
86	0x455a1f97	3489.9744
87	0x45383284	2947.1572
88	0x45834fc1	4201.969
89	0x454824a4	3202.29
90	0x4575ac56	3930.771
91	0x4532d768	2861.463
92	0x456557f0	3669.496
93	0x45883d69	4359.6763
94	0x45942407	4740.5034
95	0x44f28647	1940.1962
96	0x45246130	2630.0742
97	0x4552c571	3372.34
98	0x45127e2e	2343.8862
99	0x45b3241b	5732.513
100	0x4456d89a	859.3844
101	0x45e04fc0	7177.9688
102	0x44ebd76e	1886.7322
103	0x4586059a	4288.7
104	0x4543eef3	3134.9343
105	0x45cc93cc	6546.4746
106	0x45372d5e	2930.8354
107	0x4607cadb	8690.714
108	0x45765529	3941.3225
109	0x454caae5	3274.681
110	0x44b58727	1452.2235
111	0x45d736a2	6886.829
112	0x45bea6d5	6100.854
113	0x45abfeb1	5503.8364
114	0x454bc899	3260.5374
115	0x45441bb2	3137.731
116	0x45b086fb	5648.8726
117	0x46144316	9488.771
118	0x45944167	4744.1753
119	0x456cd757	3789.4587
120	0x45e57731	7342.899
121	0x453968a8	2966.541
122	0x44f52e07	1961.4384
123	0x458030b2	4102.087
124	0x451d96fc	2521.4365
125	0x455490e8	3401.0566
126	0x4518b70e	2443.441
127	0x459fac35	5109.526
